…
b":{"base_uri":"https://localhost:8080/"},"id":"decimal-hamilton","executionInfo":{"status":"ok","timestamp":1675757854772,"user_tz":-330,"elapsed":656,"user":{"displayName":"Zahid Hussain","userId":"14872109210270963710"}},"outputId":"88c25cbb-5433-4a75-c395-e50238392d87"},"outputs":[{"output_type":"stream","name":"stdout","text":["Model: \"sequential\"\n","_________________________________________________________________\n"," Layer (type)                Output Shape              Param #   \n","=================================================================\n"," conv2d (Conv2D)             (None, 178, 178, 100)     2800      \n","                                                                 \n"," batch_normalization (BatchN  (None, 178, 178, 100)    400       \n"," ormalization)                                                   \n","                                                                 \n"," max_pooling2d (MaxPooling2D  (None, 59, 59, 100)      0         \n"," )                                                               \n","                                                                 \n"," conv2d_1 (Conv2D)           (None, 57, 57, 70)        63070     \n","                                                                 \n"," batch_normalization_1 (Batc  (None, 57, 57, 70)       280       \n"," hNormalization)                                                 \n","                                                                 \n"," max_pooling2d_1 (MaxPooling  (None, 28, 28, 70)       0         \n"," 2D)                                                             \n","                                                                 \n"," conv2d_2 (Conv2D)           (None, 26, 26, 50)        31550     \n","                                                                 \n"," batch_normalization_2 (Batc  (None, 26, 26, 50)       200       \n"," hNormalization)                                                 \n","                                                                 \n"," max_pooling2d_2 (MaxPooling  (None, 13, 13, 50)       0         \n"," 2D)                                                             \n","                                                                 \n"," conv2d_3 (Conv2D)           (None, 11, 11, 20)        9020      \n","                                                                 \n"," batch_normalization_3 (Batc  (None, 11, 11, 20)       80        \n"," hNormalization)                                                 \n","                                                                 \n"," max_pooling2d_3 (MaxPooling  (None, 5, 5, 20)         0         \n"," 2D)                                                             \n","                                                                 \n"," dropout (Dropout)           (None, 5, 5, 20)          0         \n","                                                                 \n"," flatten (Flatten)           (None, 500)               0         \n","                                                                 \n"," dense (Dense)               (None, 4)                 2004      \n","                                                                 \n","=================================================================\n","Total params: 109,404\n","Trainable params: 108,924\n","Non-trainable params: 480\n","_________________________________________________________________\n"]}],"source":["trained_model = load_model('/content/classify_model4.h5')\n","trained_model.summ
…
