…
ab":{"base_uri":"https://localhost:8080/"},"executionInfo":{"status":"ok","timestamp":1680494064102,"user_tz":-330,"elapsed":402,"user":{"displayName":"Ifrah Andleeb","userId":"12205225353941278134"}},"outputId":"6c4d6b1b-6967-46ac-8fdf-4dbc29489803"},"execution_count":null,"outputs":[{"output_type":"stream","name":"stdout","text":["Model: \"sequential\"\n","_________________________________________________________________\n"," Layer (type)                Output Shape              Param #   \n","=================================================================\n"," conv2d (Conv2D)             (None, 222, 222, 100)     2800      \n","                                                                 \n"," batch_normalization (BatchN  (None, 222, 222, 100)    400       \n"," ormalization)                                                   \n","                                                                 \n"," max_pooling2d (MaxPooling2D  (None, 74, 74, 100)      0         \n"," )                                                               \n","                                                                 \n"," conv2d_1 (Conv2D)           (None, 72, 72, 70)        63070     \n","                                                                 \n"," batch_normalization_1 (Batc  (None, 72, 72, 70)       280       \n"," hNormalization)                                                 \n","                                                                 \n"," max_pooling2d_1 (MaxPooling  (None, 36, 36, 70)       0         \n"," 2D)                                                             \n","                                                                 \n"," conv2d_2 (Conv2D)           (None, 34, 34, 50)        31550     \n","                                                                 \n"," batch_normalization_2 (Batc  (None, 34, 34, 50)       200       \n"," hNormalization)                                                 \n","                                                                 \n"," max_pooling2d_2 (MaxPooling  (None, 17, 17, 50)       0         \n"," 2D)                                                             \n","                                                                 \n"," conv2d_3 (Conv2D)           (None, 15, 15, 20)        9020      \n","                                                                 \n"," batch_normalization_3 (Batc  (None, 15, 15, 20)       80        \n"," hNormalization)                                                 \n","                                                                 \n"," max_pooling2d_3 (MaxPooling  (None, 7, 7, 20)         0         \n"," 2D)                                                             \n","                                                                 \n"," dropout (Dropout)           (None, 7, 7, 20)          0         \n","                                                                 \n"," flatten (Flatten)           (None, 980)               0         \n","                                                                 \n"," dense (Dense)               (None, 4)                 3924      \n","                                                                 \n","=================================================================\n","Total params: 111,324\n","Trainable params: 110,844\n","Non-trainable params: 480\n","_________________________________________________________________\n"]}]},{"cell_type":"code","source":["custom5.compile(loss='categorical_crossentropy',\n","      
…
